src/notebooks/checkpoint/best_model.pth (torch, 41450 bytes, 26 tensors)

conv1.att_src f4 [1, 1, 100]
0.14343506 -0.16311128 0.020506656 0.19822648 0.20578599 -0.17913568 -0.1484614 0.18967897
0.20308764 -0.20815462 0.032116935 0.021906503 0.14245786 0.050957352 0.021466536 -0.016591337
-0.15742503 -0.20708601 0.19763917 -0.02498428 -0.17860226 -0.21327077 0.09262444 -0.039708883
-0.10782759 0.19257376 0.105418704 0.03437114 -0.25101635 -0.080871046 -0.14425729 -0.22499005
0.070303164 -0.18161394 -0.11235129 -0.2092307 -0.13078567 0.18899244 -0.2157358 0.04024653
0.06121028 -0.08651021 -0.09862966 0.0350868 0.093543306 0.027202977 -0.13755292 0.023238745
0.01970523 0.22446473 -0.21266735 -0.18249723 -0.13040821 0.22198568 0.21989189 -0.17234248
-0.043997154 -0.053515363 0.032880828 0.063803054 -0.22843699 -0.030946169 -0.07748699 0.2165609
-0.059954446 -0.2204785 0.15826735 0.0060894694 0.08979091 0.058689956 0.13319293 0.16093156
-0.110323824 -0.14452697 0.08767827 0.13123235 -0.037738197 0.059398808 -0.02827046 -0.02786325
-0.15741287 -0.003902798 -0.035487752 0.12043036 -0.12386781 0.18829311 -0.035187256 -0.095652424
0.028328717 -0.10734597 -0.05144814 0.00629503 -0.18660149 -0.26255706 0.11434031 0.107180014
-0.15404388 0.19789784 0.16151996 -0.12593606
00000000: a4e0 123e a506 27be 93fd a73c e2fb 4a3e
00000010: 90b9 523e 586f 37be 4406 18be 343b 423e
00000020: 35f6 4f3e 7c26 55be 0c8d 033d 4475 b33c
00000030: 79e0 113e a8b8 503d 97da af3c 8eea 87bc
00000040: 0734 21be 5b0e 54be ec61 4a3e d5ab ccbc
00000050: 83e3 36be a763 5abe e2b1 bd3d c8a5 22bd
00000060: b6d4 dcbd 0e32 453e c3e5 d73d c1c8 0c3d
00000070: 3785 80be b89f a5bd 2fb8 13be cb63 66be
00000080: 1bfb 8f3d 01f9 39be 6f18 e6bd 9340 56be
00000090: aeec 05be 3c87 413e d8e9 5cbe 8cd9 243d
000000a0: a1b7 7a3d 442c b1bd 59fe c9bd 2db7 0f3d
000000b0: a293 bf3d c7d8 de3c acda 0cbe 2e5f be3c
000000c0: dd6c a13c 15da 653e 78c5 59be 8ee0 3abe
000000d0: bb89 05be 3750 633e 572b 613e 8c7a 30be
000000e0: 5c36 34bd ed32 5bbd 0cae 063d 2dab 823d
000000f0: 63eb 69be d282 fdbc 80b1 9ebd 24c2 5d3e
00000100: cb92 75bd 1ec5 61be d610 223e 2c8a c73b
00000110: 4ce4 b73d e164 703d ba63 083e 3ecb 243e
00000120: 75f1 e1bd e1fe 13be aa90 b33d c661 063e
00000130: 5e93 1abd 2a4c 733d 7497 e7bc 7841 e4bc
00000140: d730 21be 16c6 7fbb 9b5b 11bd 31a4 f63d
00000150: 68ae fdbd e9cf 403e 8320 10bd 6be5 c3bd
00000160: a011 e83c 34d8 dbbd 49bb 52bd 8a46 ce3b
00000170: 7614 3fbe e16d 86be 412b ea3d 3281 db3d
00000180: aebd 1dbe bba5 4a3e 7d65 253e 62f5 00be

conv1.att_dst f4 [1, 1, 100]
0.03952069 0.10055846 -0.2046656 -0.04983819 -0.018160284 -0.17787781 -0.11301017 -0.025423916
0.026114373 -0.15025017 -0.043806802 0.29204285 0.038039774 -0.23195566 -0.008927251 0.07883948
0.045885716 0.020974807 0.20714617 0.037171878 -0.10263789 0.08925844 0.0066242893 0.22487809
0.16882168 -0.06406937 -0.23434228 0.20568854 0.005626193 -0.07752209 0.04760872 0.11355747
0.1945816 -0.18430512 -0.14351203 0.12122132 0.023647297 0.022583114 0.038137376 -0.057302773
0.099473104 -0.15767151 0.15103176 0.0545185 0.05884 0.17181139 -0.014403613 0.031238126
-0.12317835 0.12923704 -0.22313835 -0.1131042 0.051943522 0.18311946 0.22559163 -0.14347294
0.13358256 -0.1354495 -0.212779 -0.060438696 0.14226753 -0.04436444 0.04791778 -0.2705242
-0.13299958 0.15076466 0.20685026 0.17574018 -0.21094386 0.20748065 0.0709075 0.028627992
0.08556045 0.1369419 -0.18413676 0.17356677 0.17628226 -0.074417055 -0.027214257 0.23348719
0.11896672 0.035784382 -0.002076195 0.08192266 0.15087722 0.056366768 0.1856881 -0.2439299
-0.11380439 -0.24474864 0.095360935 0.16648377 0.0062564495 0.10617948 0.110605516 -0.12377097
0.011741242 -0.080418535 -0.20017518 0.27519947
00000000: 72e0 213d 98f1 cd3d dc93 51be 2123 4cbd
00000010: e0c4 94bc 9a25 36be e071 e7bd d145 d0bc
00000020: cfed d53c 2edb 19be c36e 33bd a486 953e
00000030: 98cf 1b3d c985 6dbe 9b43 12bc 9876 a13d
00000040: a9f2 3b3d 5cd3 ab3c 201e 543e 8a41 183d
00000050: d033 d2bd 21cd b63d 9110 d93b 7146 663e
00000060: 97df 2c3e cd36 83bd 6cf7 6fbe 04a0 523e
00000070: ed5b b83b e7c3 9ebd 5c01 433d d290 e83d
00000080: 6640 473e 7bba 3cbe d1f4 12be e242 f83d
00000090: fab7 c13c 3900 b93c f035 1c3d 50b6 6abd
000000a0: 8eb8 cb3d a474 21be 12a8 1a3e ca4e 5f3d
000000b0: 3602 713d 53ef 2f3e 22fd 6bbc 19e7 ff3c
000000c0: ee44 fcbd b756 043e 617e 64be 2da3 e7bd
000000d0: bbc2 543d ab83 3b3e 7e01 673e 92ea 12be
000000e0: dec9 083e 46b3 0abe bde2 59be 918e 77bd
000000f0: 94ae 113e 7db7 35bd 6f45 443d 2682 8abe
00000100: 0b31 08be 0d62 1a3e 8ed0 533e 3cf5 333e
00000110: ab01 58be cf75 543e f437 913d 4085 ea3c
00000120: 513a af3d 7f3a 0c3e 598e 3cbe 7dbb 313e
00000130: 5683 343e f867 98bd 6ff0 debc 4417 6f3e
00000140: d3a4 f33d a592 123d c610 08bb 11c7 a73d
00000150: 8f7f 1a3e d7e0 663d 0525 3e3e c2c8 79be
00000160: 4712 e9bd 639f 7abe 984c c33d b97a 2a3e
00000170: e702 cd3b a174 d93d 2585 e23d a27b fdbd
00000180: 575e 403c 79b2 a4bd b9fa 4cbe f2e6 8c3e

conv1.att_edge f4 [1, 1, 100]
0.011529983 -0.002573203 0.139312 -0.1795244 -0.25569856 0.23383075 0.15878297 -0.060813017
0.15217696 -0.124642625 0.12805088 0.07766644 0.07845532 0.060628198 0.23903719 -0.23861796
-0.02343088 0.07312278 -0.055934772 -0.23333031 0.15682131 0.17764904 -0.12684627 0.09317741
0.07921815 0.1357745 -0.15767463 -0.10282051 -0.029399265 -0.04412373 0.019282576 0.02408824
0.09432895 -0.11327789 -0.09165118 0.060306508 0.24167502 -0.1019279 -0.03056722 0.22646134
0.2098436 0.23430462 -0.053196367 0.1917163 -0.1714644 0.17954002 -0.09172657 0.24497645
-0.23124045 -0.25404862 -0.10442674 0.06771467 0.24823205 0.07131659 -0.20296973 -0.23433843
0.006315376 0.13749745 -0.021284197 0.060619883 0.048168078 0.26452506 0.19198 0.2471919
-0.09577656 0.12918934 0.08544503 -0.107028596 -0.053352453 0.069151565 -0.24319507 -0.09654606
0.022515012 -0.14674713 -0.16284123 -0.17670104 0.09768998 -0.27765065 -0.26447165 0.19858003
-0.14167634 0.26468506 -0.1024695 -0.03420958 -0.06428724 -0.0744977 -0.23251052 0.03327432
0.17564239 0.14349344 -0.08382391 -0.10377651 -0.12680358 0.043029398 -0.17029321 -0.20925502
0.012672912 0.27002585 0.14339033 -0.11397321
00000000: 41e8 3c3c 2fa3 28bb cea7 0e3e 3fd5 37be
00000010: ecea 82be 5471 6f3e 0198 223e 1217 79bd
00000020: 47d4 1b3e a244 ffbd c51f 033e 950f 9f3d
00000030: 2fad a03d 4655 783d 2ac6 743e 4458 74be
00000040: 1ef2 bfbc 65c1 953d dc1b 65bd 24ee 6ebe
00000050: c495 203e a1e9 353e fde3 01be ccd3 be3d
00000060: 203d a23d 7808 0b3e 7575 21be 8f93 d2bd
00000070: bad6 f0bc 16bb 34bd 7ef6 9d3c b354 c53c
00000080: 892f c13d 3dfe e7bd 9db3 bbbd f503 773d
00000090: a879 773e 93bf d0bd 1b68 fabc 7be5 673e
000000a0: 3ee1 563e 8ded 6f3e 6fe4 59bd 4751 443e
000000b0: 5d94 2fbe 57d9 373e 24db bbbd 1bdb 7a3e
000000c0: 4cca 6cbe a912 82be b0dd d5bd fdad 8a3d
000000d0: 8b30 7e3e 6f0e 923d 4cd7 4fbe 6af6 6fbe
000000e0: 37f1 ce3b 22cc 0c3e 325c aebc 8e4c 783d
000000f0: e44b 453d d46f 873e 6896 443e e01f 7d3e
00000100: 8026 c4bd 364a 043e cefd ae3d cf31 dbbd
00000110: 1a88 5abd 569f 8d3d 2108 79be f1b9 c5bd
00000120: 6771 b83c e144 16be dabf 26be 1ef1 34be
00000130: af11 c83d 3a28 8ebe d468 87be 9058 4b3e
00000140: 9a13 11be cd84 873e 87db d1bd 581f 0cbd
00000150: 07a9 83bd 4092 98bd 3d17 6ebe a74a 083d
00000160: 99db 333e f2ef 123e dfab abbd c788 d4bd
00000170: ccd8 01be 983f 303d 5861 2ebe f346 56be
00000180: 0ca2 4f3c d440 8a3e ead4 123e c96a e9bd

conv1.bias f4 [100]
-0.009357408 -0.03169251 0.003877737 0.017116975 0.07651255 -0.008233878 0.07033518 0.03048086
0.029351218 -0.02821209 0.011903239 0.07227356 0.035290647 -0.024647256 -0.016624326 -0.046122126
-0.0060270107 -0.02597758 -0.04355786 -0.019831821 -0.02556713 0.06098799 -0.0041412497 0.119415715
-0.05651323 -0.009534815 0.10583473 0.070167266 0.073762216 -0.038120534 -0.023110842 -0.007785677
-0.0016150497 0.036860928 -0.03007896 -0.004073577 0.00931244 -0.006496063 -0.041433573 0.06682722
0.10691456 -0.016644826 -0.0041502174 0.009521787 -0.033451702 0.031981386 -0.08350225 0.009680186
0.07833589 -0.04937625 -0.024382386 0.0009547872 0.06327168 0.021810098 -0.0344441 0.037074957
-0.004709814 0.0115906475 0.052985456 0.00074785925 0.011659787 -0.036475044 -0.019261824 -0.021893011
0.03089551 -0.053012878 -0.001689285 0.025549363 -0.006505667 0.01940444 0.106599614 -0.013421599
0.04209022 0.032327194 0.03302331 -0.031108595 -0.072950296 -0.0556332 -0.025267998 0.01536737
0.07227588 -0.0091294665 -0.033270217 -0.008128698 0.03760026 -0.021228636 0.048223164 -0.0068262126
-0.032525055 -0.031178098 -0.025452552 0.002755617 0.05244017 -0.0062768916 -0.017132191 0.10703007
-0.09256225 0.068755046 -0.018478211 0.027169669
00000000: d04f 19bc 01d0 01bd a221 7e3b e638 8c3c
00000010: 9db2 9c3d 63e7 06bc e40b 903d ffb2 f93c
00000020: f771 f03c 0a1d e7bc ce05 433c 2904 943d
00000030: ed8c 103d 0be9 c9bc bd2f 88bc 8eea 3cbd
00000040: 3b7e c5bb efce d4bc ba69 32bd 5876 a2bc
00000050: 2872 d1bc 8bce 793d 52b3 87bb 3a90 f43d
00000060: 6b7a 67bd ea37 1cbc e1bf d83d dbb3 8f3d
00000070: a510 973d 4724 1cbd f352 bdbc fe1e ffbb
00000080: 13b0 d3ba 7cfb 163d 2768 f6bc a47b 85bb
00000090: 3493 183c eddc d4bb 40b6 29bd b6dc 883d
000000a0: 05f6 da3d bb5a 88bc 8cfe 87bb 4501 1c3c
000000b0: a704 09bd eafe 023d 3a03 abbd a599 1e3c
000000c0: 916e a03d c03e 4abd 92bd c7bc af4a 7a3a
000000d0: 9594 813d 17ab b23c 4215 0dbd e9db 173d
000000e0: c954 9abb b3e6 3d3c 4707 593d fc0b 443a
000000f0: b108 3f3c db66 15bd f9ca 9dbc f958 b3bc
00000100: 9518 fd3c 0824 59bd 006b ddba e64c d13c
00000110: 7e2d d5bb 0ff6 9e3c e650 da3d 44e6 5bbc
00000120: cb66 2c3d 8569 043d 7343 073d 74d7 febc
00000130: f766 95bd a3df 63bd d5fe cebc 6cc7 7b3c
00000140: 6005 943d c293 15bc 5a46 08bd 3b2e 05bc
00000150: bb02 1a3d ade7 adbc a785 453d 6cae dfbb
00000160: fe38 05bd 3669 ffbc df81 d0bc 9597 343b
00000170: 81cb 563d 62ae cdbb cf58 8cbc 9532 db3d
00000180: 4791 bdbd 72cf 8c3d 9e5f 97bc ed92 de3c

conv1.lin_src.weight f4 [100, 16]
-0.044169676 -0.017005319 0.15624009 -0.19601269 0.21425618 -0.06558507 0.17598292 -0.102745146
0.073610455 0.23498788 0.15702504 0.17945574 -0.025401305 -0.09384678 -0.17036913 -0.1632197
0.13179676 -0.07870976 -0.034114257 0.15895 0.14468735 -0.2543605 0.0315581 0.16895564
0.13061544 -0.067373924 -0.15168011 -0.09521074 -0.0016021335 -0.15177974 -0.029830046 -0.21108475
0.04718924 0.09098978 0.15844043 -0.012196454 -0.3953944 -0.15633091 -0.09650945 0.24222212
-0.16338214 0.15298015 -0.23760186 -0.11874342 -0.37629732 0.03623578 -0.1521679 -0.010919379
-0.16878398 -0.042829476 -0.2036603 -0.016787264 0.29524255 0.23367573 0.08767518 -0.3221654
-0.015946433 -0.2517617 -0.042642392 0.016468735 0.05213569 -0.008239374 -0.120064184 0.020577885
0.15219173 -0.21088487 0.26345843 -0.25242206 -0.1319251 0.16398506 0.04152649 0.004492692
-0.083237015 -0.24482453 -0.120124765 -0.19102459 -0.07115542 -0.088317245 0.03188901 0.21643433
-0.19702639 0.22789852 0.12459836 -0.0068076905 -0.07905066 0.106538035 -0.026523558 0.3152494
0.19892745 0.174335 -0.16481693 -0.1331235 -0.2761344 -0.05446755 -0.16512083 0.09220937
0.06176311 0.23439047 -0.01288946 0.18030816 -0.081440054 -0.21682914 0.113979034 0.05856144
0.080786705 -0.012877325 -0.02346472 -0.06931435 -0.19502264 -0.065825306 0.20726381 -0.32050383
-0.16421705 0.07547903 0.15323877 -0.02048469 -0.21948133 -0.032128457 0.19343473 0.061096285
0.001229038 -0.106271245 0.08474615 0.043786712 0.09572938 0.11537838 -0.08684299 -0.09468465
-0.21604832 0.12969013 -0.1747337 -0.019588403 -0.215664 0.052969657 -0.056007043 0.13095698
-0.10723854 0.018308187 0.02495708 0.15840723 -0.19961134 -0.023125743 -0.0145682935 -0.31436893
0.13073085 -0.04849843 -0.11312158 -0.22744648 0.21864185 -0.056768097 -0.15235741 -0.07969271
-0.05677357 0.14368622 -0.2009048 0.042191863 0.03154599 0.22627342 -0.11323807 0.04798005
0.077217296 0.02260127 -0.057184517 -0.12554792 -0.10731253 -0.021855934 -0.1762873 0.08733259
-0.16283096 0.088083714 0.12125749 0.037513185 0.012467874 0.011921966 0.06919004 -0.12967393
-0.08421977 -0.2554766 0.034618907 -0.2548618 0.034571208 -0.122606486 0.058059666 0.09697206
-0.0039494494 -0.0072674346 0.23895822 -0.009215069 0.020008294 -0.12571543 -0.031108519 0.29218715
-0.10884649 -0.2860472 0.1620867 -0.14558072 -0.06934876 -0.12508108 0.06450052 -0.03978583
0.09140455 0.041997213 0.10311657 0.18944596 0.17412218 -0.16797645 -0.010855889 0.2847041
0.18470702 -0.13337387 0.1886485 -0.07171542 -0.15436974 -0.12433013 -0.11554244 0.1309155
-0.21634388 -0.20453432 -0.058102082 -0.0016849615 -0.12365098 0.11317914 0.057900216 0.06380857
0.051622596 -0.17082708 -0.16108127 -0.27923438 0.23273052 0.07036393 0.17222103 -0.22846615
0.009329748 -0.2519069 0.05413018 -0.1095943 -0.014475235 0.1669807 0.16748652 0.116342686
-0.028434949 0.15310694 0.016318347 -0.317102 0.080100544 -0.17934182 0.04274394 0.20000297
-0.20541783 0.13206322 0.080514155 -0.124390535 0.2205189 0.090252295 -0.048806228 -0.017052732
00000000: 43eb 34bd bd4e 8bbc 67fd 1f3e 8db7 48be
00000010: f965 5b3e 7751 86bd de34 343e 0c6c d2bd
00000020: 14c1 963d aaa0 703e 2ccb 203e 3fc3 373e
00000030: 6616 d0bc be32 c0bd 3f75 2ebe 1123 27be
00000040: bbf5 063e 9532 a1bd 64bb 0bbd cac3 223e
00000050: ec28 143e 8a3b 82be 1143 013d b502 2d3e
00000060: 0ec0 053e 57fb 89bd 0852 1bbe d9fd c2bd
00000070: aefe d1ba 266c 1bbe 245e f4bc 9a26 58be
00000080: 8149 413d da58 ba3d 353e 223e a3d3 47bc
00000090: 2371 cabe 3615 20be bfa6 c5bd 1309 783e
000000a0: a64d 27be d4a6 1c3e e74d 73be c02f f3bd
000000b0: 0baa c0be f86b 143d e7d1 1bbe 32e7 32bc
000000c0: b5d5 2cbe f66d 2fbd 538c 50be 7285 89bc
000000d0: 082a 973e b148 6f3e 0b8f b33d ddf2 a4be
000000e0: 18a2 82bc e9e6 80be caa9 2ebd 71e9 863c
000000f0: 3c8c 553d 70fe 06bc 36e4 f5bd f492 a83c
00000100: 26d8 1b3e 34f2 57be 06e4 863e 773d 81be
00000110: 6017 07be b3eb 273e ae17 2a3d 6f37 933b
00000120: 2b78 aabd 48b3 7abe f903 f6bd f39b 43be
00000130: efb9 91bd acdf b4bd 0d9e 023d f6a0 5d3e
00000140: 49c1 49be 3b5e 693e 6d2d ff3d 0c13 dfbb
00000150: 50e5 a1bd 9d30 da3d ef47 d9bc 5f68 a13e
00000160: a3b3 4b3e e084 323e c5c5 28be 8751 08be
00000170: 7d61 8dbe 5e19 5fbd 6f15 29be 44d8 bc3d
00000180: 51fb 7c3d 0e04 703e 502e 53bc b4a2 383e
00000190: 0bca a6bd 7508 5ebe d76d e93d 1fde 6f3d
000001a0: 8073 a53d 6afb 52bc 1639 c0bc aff4 8dbd
000001b0: 04b4 47be 6bcf 86bd f73c 543e 1419 a4be
000001c0: 8428 28be c094 9a3d a0ea 1c3e 82cf a7bc
000001d0: b7bf 60be 2199 03bd c113 463e 1940 7a3d
000001e0: ac17 a13a bda4 d9bd 648f ad3d b259 333d
000001f0: c40d c43d 804b ec3d bdda b1bd 07ea c1bd
00000200: c53b 5dbe 7dcd 043e 64ed 32be dc77 a0bc
00000210: 06d7 5cbe b6f6 583d a467 65bd 9619 063e
00000220: e19f dbbd 0dfb 953c ca72 cc3c 8135 223e
00000230: ea66 4cbe 3372 bdbc daaf 6ebc f7f4 a0be
00000240: 4fde 053e 4aa6 46bd 49ac e7bd bbe7 68be
00000250: a6e3 5f3e aa85 68bd 9503 1cbe ee35 a3bd
00000260: 678b 68bd 7b22 133e fdb9 4dbe 60d1 2c3d
00000270: 5e36 013d 38b4 673e 5ce9 e7bd bb86 443d
00000280: 1a24 9e3d 4c26 b93c 503a 6abd a28f 00be
00000290: acc6 dbbd 370b b3bc a884 34be 6edb b23d
000002a0: 29bd 26be 3c65 b43d d955 f83d 6da7 193d
000002b0: 0e46 4c3c 5a54 433c 82b3 8d3d 3ec9 04be
000002c0: 6a7b acbd d4cd 82be 8ecc 0d3d 3f7d 82be
000002d0: 8a9a 0d3d 1c19 fbbd f9cf 6d3d 4a99 c63d
000002e0: 626a 81bb a923 eebb 77b1 743e cdfa 16bc
000002f0: 6fe8 a33c 8cbb 00be 4bd7 febc 8e99 953e
00000300: e9ea debd c774 92be 0efa 253e 1d13 15be
00000310: b906 8ebd 4115 00be d918 843d 77f6 22bd
00000320: 4f32 bb3d 4505 2c3d c82e d33d 1ffe 413e
00000330: 164d 323e 0502 2cbe e6dc 31bc bcc4 913e
00000340: d623 3d3e 2993 08be 132d 413e 89df 92bd
00000350: 1a13 1ebe cca0 febd 84a1 ecbd b60e 063e
00000360: 4089 5dbe 7271 51be 73fc 6dbd edd9 dcba
00000370: ba3c fdbd 77ca e73d c728 6d3d 11ae 823d
00000380: 3772 533d 4bed 2ebe 7df2 24be cff7 8ebe
00000390: e950 6e3e f71a 903d b65a 303e 08f3 69be
000003a0: cddb 183c f1f9 80be 9cb7 5d3d fa72 e0bd
000003b0: 8929 6dbc fdfc 2a3e 9681 2b3e 1345 ee3d
000003c0: 69f0 e8bc 11c8 1c3e 0eae 853c 315b a2be
000003d0: c10b a43d 62a5 37be 4514 2f3d 94cd 4c3e
000003e0: 0d59 52be 953b 073e 9be4 a43d 77c0 febd
000003f0: b5cf 613e 32d6 b83d 0ae9 47bd 2cb2 8bbc

conv1.lin_dst.weight f4 [100, 16]
-0.044169676 -0.017005319 0.15624009 -0.19601269 0.21425618 -0.06558507 0.17598292 -0.102745146
0.073610455 0.23498788 0.15702504 0.17945574 -0.025401305 -0.09384678 -0.17036913 -0.1632197
0.13179676 -0.07870976 -0.034114257 0.15895 0.14468735 -0.2543605 0.0315581 0.16895564
0.13061544 -0.067373924 -0.15168011 -0.09521074 -0.0016021335 -0.15177974 -0.029830046 -0.21108475
0.04718924 0.09098978 0.15844043 -0.012196454 -0.3953944 -0.15633091 -0.09650945 0.24222212
-0.16338214 0.15298015 -0.23760186 -0.11874342 -0.37629732 0.03623578 -0.1521679 -0.010919379
-0.16878398 -0.042829476 -0.2036603 -0.016787264 0.29524255 0.23367573 0.08767518 -0.3221654
-0.015946433 -0.2517617 -0.042642392 0.016468735 0.05213569 -0.008239374 -0.120064184 0.020577885
0.15219173 -0.21088487 0.26345843 -0.25242206 -0.1319251 0.16398506 0.04152649 0.004492692
-0.083237015 -0.24482453 -0.120124765 -0.19102459 -0.07115542 -0.088317245 0.03188901 0.21643433
-0.19702639 0.22789852 0.12459836 -0.0068076905 -0.07905066 0.106538035 -0.026523558 0.3152494
0.19892745 0.174335 -0.16481693 -0.1331235 -0.2761344 -0.05446755 -0.16512083 0.09220937
0.06176311 0.23439047 -0.01288946 0.18030816 -0.081440054 -0.21682914 0.113979034 0.05856144
0.080786705 -0.012877325 -0.02346472 -0.06931435 -0.19502264 -0.065825306 0.20726381 -0.32050383
-0.16421705 0.07547903 0.15323877 -0.02048469 -0.21948133 -0.032128457 0.19343473 0.061096285
0.001229038 -0.106271245 0.08474615 0.043786712 0.09572938 0.11537838 -0.08684299 -0.09468465
-0.21604832 0.12969013 -0.1747337 -0.019588403 -0.215664 0.052969657 -0.056007043 0.13095698
-0.10723854 0.018308187 0.02495708 0.15840723 -0.19961134 -0.023125743 -0.0145682935 -0.31436893
0.13073085 -0.04849843 -0.11312158 -0.22744648 0.21864185 -0.056768097 -0.15235741 -0.07969271
-0.05677357 0.14368622 -0.2009048 0.042191863 0.03154599 0.22627342 -0.11323807 0.04798005
0.077217296 0.02260127 -0.057184517 -0.12554792 -0.10731253 -0.021855934 -0.1762873 0.08733259
-0.16283096 0.088083714 0.12125749 0.037513185 0.012467874 0.011921966 0.06919004 -0.12967393
-0.08421977 -0.2554766 0.034618907 -0.2548618 0.034571208 -0.122606486 0.058059666 0.09697206
-0.0039494494 -0.0072674346 0.23895822 -0.009215069 0.020008294 -0.12571543 -0.031108519 0.29218715
-0.10884649 -0.2860472 0.1620867 -0.14558072 -0.06934876 -0.12508108 0.06450052 -0.03978583
0.09140455 0.041997213 0.10311657 0.18944596 0.17412218 -0.16797645 -0.010855889 0.2847041
0.18470702 -0.13337387 0.1886485 -0.07171542 -0.15436974 -0.12433013 -0.11554244 0.1309155
-0.21634388 -0.20453432 -0.058102082 -0.0016849615 -0.12365098 0.11317914 0.057900216 0.06380857
0.051622596 -0.17082708 -0.16108127 -0.27923438 0.23273052 0.07036393 0.17222103 -0.22846615
0.009329748 -0.2519069 0.05413018 -0.1095943 -0.014475235 0.1669807 0.16748652 0.116342686
-0.028434949 0.15310694 0.016318347 -0.317102 0.080100544 -0.17934182 0.04274394 0.20000297
-0.20541783 0.13206322 0.080514155 -0.124390535 0.2205189 0.090252295 -0.048806228 -0.017052732
00000000: 43eb 34bd bd4e 8bbc 67fd 1f3e 8db7 48be
00000010: f965 5b3e 7751 86bd de34 343e 0c6c d2bd
00000020: 14c1 963d aaa0 703e 2ccb 203e 3fc3 373e
00000030: 6616 d0bc be32 c0bd 3f75 2ebe 1123 27be
00000040: bbf5 063e 9532 a1bd 64bb 0bbd cac3 223e
00000050: ec28 143e 8a3b 82be 1143 013d b502 2d3e
00000060: 0ec0 053e 57fb 89bd 0852 1bbe d9fd c2bd
00000070: aefe d1ba 266c 1bbe 245e f4bc 9a26 58be
00000080: 8149 413d da58 ba3d 353e 223e a3d3 47bc
00000090: 2371 cabe 3615 20be bfa6 c5bd 1309 783e
000000a0: a64d 27be d4a6 1c3e e74d 73be c02f f3bd
000000b0: 0baa c0be f86b 143d e7d1 1bbe 32e7 32bc
000000c0: b5d5 2cbe f66d 2fbd 538c 50be 7285 89bc
000000d0: 082a 973e b148 6f3e 0b8f b33d ddf2 a4be
000000e0: 18a2 82bc e9e6 80be caa9 2ebd 71e9 863c
000000f0: 3c8c 553d 70fe 06bc 36e4 f5bd f492 a83c
00000100: 26d8 1b3e 34f2 57be 06e4 863e 773d 81be
00000110: 6017 07be b3eb 273e ae17 2a3d 6f37 933b
00000120: 2b78 aabd 48b3 7abe f903 f6bd f39b 43be
00000130: efb9 91bd acdf b4bd 0d9e 023d f6a0 5d3e
00000140: 49c1 49be 3b5e 693e 6d2d ff3d 0c13 dfbb
00000150: 50e5 a1bd 9d30 da3d ef47 d9bc 5f68 a13e
00000160: a3b3 4b3e e084 323e c5c5 28be 8751 08be
00000170: 7d61 8dbe 5e19 5fbd 6f15 29be 44d8 bc3d
00000180: 51fb 7c3d 0e04 703e 502e 53bc b4a2 383e
00000190: 0bca a6bd 7508 5ebe d76d e93d 1fde 6f3d
000001a0: 8073 a53d 6afb 52bc 1639 c0bc aff4 8dbd
000001b0: 04b4 47be 6bcf 86bd f73c 543e 1419 a4be
000001c0: 8428 28be c094 9a3d a0ea 1c3e 82cf a7bc
000001d0: b7bf 60be 2199 03bd c113 463e 1940 7a3d
000001e0: ac17 a13a bda4 d9bd 648f ad3d b259 333d
000001f0: c40d c43d 804b ec3d bdda b1bd 07ea c1bd
00000200: c53b 5dbe 7dcd 043e 64ed 32be dc77 a0bc
00000210: 06d7 5cbe b6f6 583d a467 65bd 9619 063e
00000220: e19f dbbd 0dfb 953c ca72 cc3c 8135 223e
00000230: ea66 4cbe 3372 bdbc daaf 6ebc f7f4 a0be
00000240: 4fde 053e 4aa6 46bd 49ac e7bd bbe7 68be
00000250: a6e3 5f3e aa85 68bd 9503 1cbe ee35 a3bd
00000260: 678b 68bd 7b22 133e fdb9 4dbe 60d1 2c3d
00000270: 5e36 013d 38b4 673e 5ce9 e7bd bb86 443d
00000280: 1a24 9e3d 4c26 b93c 503a 6abd a28f 00be
00000290: acc6 dbbd 370b b3bc a884 34be 6edb b23d
000002a0: 29bd 26be 3c65 b43d d955 f83d 6da7 193d
000002b0: 0e46 4c3c 5a54 433c 82b3 8d3d 3ec9 04be
000002c0: 6a7b acbd d4cd 82be 8ecc 0d3d 3f7d 82be
000002d0: 8a9a 0d3d 1c19 fbbd f9cf 6d3d 4a99 c63d
000002e0: 626a 81bb a923 eebb 77b1 743e cdfa 16bc
000002f0: 6fe8 a33c 8cbb 00be 4bd7 febc 8e99 953e
00000300: e9ea debd c774 92be 0efa 253e 1d13 15be
00000310: b906 8ebd 4115 00be d918 843d 77f6 22bd
00000320: 4f32 bb3d 4505 2c3d c82e d33d 1ffe 413e
00000330: 164d 323e 0502 2cbe e6dc 31bc bcc4 913e
00000340: d623 3d3e 2993 08be 132d 413e 89df 92bd
00000350: 1a13 1ebe cca0 febd 84a1 ecbd b60e 063e
00000360: 4089 5dbe 7271 51be 73fc 6dbd edd9 dcba
00000370: ba3c fdbd 77ca e73d c728 6d3d 11ae 823d
00000380: 3772 533d 4bed 2ebe 7df2 24be cff7 8ebe
00000390: e950 6e3e f71a 903d b65a 303e 08f3 69be
000003a0: cddb 183c f1f9 80be 9cb7 5d3d fa72 e0bd
000003b0: 8929 6dbc fdfc 2a3e 9681 2b3e 1345 ee3d
000003c0: 69f0 e8bc 11c8 1c3e 0eae 853c 315b a2be
000003d0: c10b a43d 62a5 37be 4514 2f3d 94cd 4c3e
000003e0: 0d59 52be 953b 073e 9be4 a43d 77c0 febd
000003f0: b5cf 613e 32d6 b83d 0ae9 47bd 2cb2 8bbc

conv1.lin_edge.weight f4 [100, 2]
0.018271182 -0.22056307 0.23183815 -0.10615026 0.023173563 -0.049302936 0.25632778 0.27402171
0.10196189 0.13253963 -0.20970435 -0.16658798 0.14857385 -0.1157838 0.20657922 0.094923854
-0.11162671 -0.06368922 -0.02257224 -0.11017677 0.19298199 0.030956801 0.020810938 0.10509692
-0.18430856 -0.09850416 -0.1492692 -0.014241949 -0.19071274 -0.24554622 -0.13087542 0.09474535
0.19998118 -0.082976006 0.16097867 0.17400971 0.13641424 -0.04758602 0.045301218 0.1175833
-0.047376066 0.017479144 0.05999429 0.00017804111 -0.07638465 -0.14199397 -0.24199122 -0.13599084
-0.16284412 0.11414588 -0.17713541 0.10726944 0.11276601 -0.1404343 -0.1873956 0.037924338
0.038836837 0.11938264 0.08087377 0.17472388 -0.21580929 0.0020826315 0.06882139 -0.18549767
0.051329352 -0.14132077 -0.025225466 -0.0021602723 0.08364331 0.13912068 -0.041804302 -0.07146716
-0.269354 -0.11354758 -0.08029904 0.00089564704 0.1686222 0.0098901475 -0.18459557 0.007252687
0.06296708 -0.25501645 0.04461845 -0.2322691 -0.22566776 0.21483824 -0.1761392 0.051486377
0.10467126 -0.19531938 -0.020524899 -0.19300434 -0.00040411242 0.19191855 -0.27020076 -0.014031532
0.24977253 0.035944734 0.09241453 0.053288493 0.09488231 0.12974218 -0.30013853 -0.055371527
-0.15086074 -0.20809525 -0.17078437 -0.1627434 0.21096696 0.20409393 -0.148766 0.2716328
-0.05478731 -0.110281594 -0.0025402745 0.05299321 -0.17199527 -0.17991813 -0.23248589 0.16142008
0.058900643 0.13577099 -0.031973895 -0.25280204 -0.03719148 0.12602267 0.11413933 -0.12698554
-0.03180419 -0.13972999 0.005230844 0.18035102 0.07129571 0.016830208 0.2187446 0.038165584
0.123313844 0.08861195 -0.09915733 -0.26491135 0.25793177 0.27065426 0.047444835 0.28200185
-0.13192722 -0.12675376 0.13354078 0.26895723 -0.015001361 0.25778413 0.10972224 0.047320563
0.030689597 -0.03087287 0.15003806 0.17074485 0.18623854 0.14078446 -0.14759073 -0.27785364
0.20141333 0.015522983 -0.029082954 -0.15753658 0.0064570173 -0.045401894 0.06038228 -0.0020827274
0.28663862 -0.1970008 -0.13613525 0.24919067 0.20361446 0.22387992 0.03801661 0.1694153
-0.15148996 -0.022050098 0.15439834 0.12992597 -0.12224437 -0.059722345 -0.2027869 0.12456554
0.24977072 -0.07603463 0.18589997 -0.15701456 -0.13117896 0.021638967 0.17231005 0.11521597
-0.026413506 -0.21729852 -0.22331025 -0.057360526 -0.17170306 -0.2861096 0.2045073 -0.0030361866
00000000: 72ad 953c 49db 61be fb66 6d3e 4f65 d9bd
00000010: 7cd6 bd3c e0f1 49bd 653d 833e 934c 8c3e
00000020: 65d1 d03d 78b8 073e bdbc 56be 0a96 2abe
00000030: be23 183e 0f20 edbd 8189 533e 7067 c23d
00000040: 8b9c e4bd 7e6f 82bd 6be9 b8bc 5ca4 e1bd
00000050: 129d 453e 1e99 fd3c b37b aa3c 0e3d d73d
00000060: 62bb 3cbe 8dbc c9bd 06da 18be 1057 69bc
00000070: 334a 43be 7870 7bbe 3504 06be da09 c23d
00000080: dec7 4c3e 53ef a9bd 98d7 243e 9a2f 323e
00000090: 2db0 0b3e 8fe9 42bd c58d 393d 83cf f03d
000000a0: 680d 42bd 6c30 8f3c 93bc 753d 8cb0 3a39
000000b0: 8e6f 9cbd de66 11be 8ccc 77be 2f41 0bbe
000000c0: 9cc0 26be 51c5 e93d fc62 35be 15b0 db3d
000000d0: def1 e63d 02ce 0fbe a2e4 3fbe 8d56 1b3d
000000e0: 6013 1f3d e37e f43d 26a1 a53d d1ea 323e
000000f0: 1cfd 5cbe c27c 083b 3bf2 8c3d 1af3 3dbe
00000100: ba3e 523d 64b6 10be a3a5 cebc 5b93 0dbb
00000110: 2f4d ab3d a775 0e3e fd3a 2bbd 605d 92bd
00000120: c4e8 89be a28b e8bd d373 a4bd dbc9 6a3a
00000130: 4cab 2c3e 490a 223c 9f06 3dbe f3a7 ed3b
00000140: e2f4 803d 8491 82be d6c1 363d f3d7 6dbe
00000150: 7315 67be 8efe 5b3e d65d 34be 61e3 523d
00000160: e35d d63d ce01 48be d523 a8bc eea2 45be
00000170: 0ddf d3b9 4c86 443e c157 8abe 83e4 65bc
00000180: 5fc4 7f3e c93a 133d d443 bd3d 0945 5a3d
00000190: a851 c23d 22db 043e c2ab 99be 41cd 62bd
000001a0: 3d7b 1abe ec16 55be 19e2 2ebe 35a6 26be
000001b0: b907 583e 00fe 503e 1d56 18be 7413 8b3e
000001c0: a968 60bd 51db e1bd bc7a 26bb 680f 593d
000001d0: 871f 30be 753c 38be c810 6ebe 4e4b 253e
000001e0: cd41 713d 8d07 0b3e 0ff7 02bd 456f 81be
000001f0: 1856 18bd 160c 013e e2c1 e93d 7f08 02be
00000200: 1c45 02bd 6115 0fbe 8067 ab3b f0ad 383e
00000210: 7c03 923d 81df 893c 96fe 5f3e 8453 1c3d
00000220: f88b fc3d 2f7a b53d 0013 cbbd 76a2 87be
00000230: a20f 843e 3293 8a3e 8455 423d 8c62 903e
00000240: ee17 07be bdcb 01be eabe 083e c3b4 893e
00000250: 45c8 75bc 48fc 833e 0eb6 e03d 35d3 413d
00000260: c068 fb3c 1ae9 fcbc 94a3 193e bdd7 2e3e
00000270: 51b5 3e3e cd29 103e 0622 17be d542 8ebe
00000280: 4c3f 4e3e 1c54 7e3c 603f eebc 4551 21be
00000290: 6395 d33b 56f7 39bd 6953 773d 5e7e 08bb
000002a0: 4cc2 923e 94ba 49be 0a67 0bbe d72b 7f3e
000002b0: 4f80 503e c740 653e 4eb7 1b3d 347b 2d3e
000002c0: 2f20 1bbe 68a2 b4bc 991a 1e3e 500b 053e
000002d0: 425b fabd 6b9f 74bd 5ea7 4fbe 381c ff3d
000002e0: e5c3 7f3e 0bb8 9bbd 905c 3e3e 6dc8 20be
000002f0: c753 06be 3444 b13c 0c72 303e 5af6 eb3d
00000300: 2361 d8bc 8183 5ebe 71ab 64be dff2 6abd
00000310: edd2 2fbe f57c 92be 5d6a 513e c2fa 46bb

linear_2.weight f4 [1, 100]
0.02496304 0.054881778 0.051257778 -0.051338088 -0.13347876 0.04370025 0.08698188 0.04831854
0.027485386 -0.06575435 0.058845732 -0.0904966 -0.12157171 0.047341112 -0.053667035 -0.037262443
0.032849632 -0.0109700905 -0.019455148 -0.09166774 0.05421649 -0.06457896 -0.016525123 -0.027028304
0.005452765 0.050233055 0.028409459 -0.04479056 -0.02572383 -0.025234638 0.03832141 -0.10392168
0.01936303 -0.09977616 0.001275577 -0.009986112 -0.11857805 -0.07666592 0.01007777 -0.068394035
-0.034402765 -0.05096641 0.028478079 -0.05760448 -0.056900878 0.042802416 0.07145864 0.089991115
-0.04656772 0.03051399 -0.0033601357 0.028110502 0.12014295 -0.06648605 0.025048899 -0.033333596
0.0069904085 0.06394833 0.10283411 0.11642214 0.09408583 0.045070905 0.022573164 -0.033382375
0.14412992 0.037922278 0.0044598104 -0.1309936 -0.012635219 -0.03276178 0.1261886 -0.07798065
0.103311345 -0.11621088 -0.07878735 -0.050817557 0.01961693 0.03878165 -0.066780075 -0.048341397
0.042930394 0.013962987 0.04378358 0.022900816 0.12359339 -0.07031114 -0.115054674 0.028051762
-0.06573626 0.004475481 -0.034918617 -0.08952399 0.07650753 -0.09806273 -0.018689593 0.1224239
0.007782278 -0.16797166 0.03832884 -0.028109055
00000000: 4a7f cc3c b7cb 603d adf3 513d e347 52bd
00000010: a8ae 08be 09ff 323d 8e23 b23d a9e9 453d
00000020: 0829 e13c 37aa 86bd 3908 713d 4856 b9bd
00000030: 97fa f8bd c1e8 413d f7d1 5bbd 81a0 18bd
00000040: 568d 063d e5bb 33bc 6760 9fbc 4cbc bbbd
00000050: 1c12 5e3d f941 84bd b25f 87bc 766a ddbc
00000060: 1cad b23b 2dc1 4d3d f4ba e83c 4e76 37bd
00000070: c8ba d2bc dfb8 cebc e9f6 1c3d e4d4 d4bd
00000080: 389f 9e3c 7257 ccbd 4331 a73a ca9c 23bc
00000090: 0cd9 f2bd 0603 9dbd 3b1d 253c 2c12 8cbd
000000a0: eae9 0cbd 28c2 50bd dc4a e93c adf2 6bbd
000000b0: e510 69bd 9651 2f3d e858 923d 434d b83d
000000c0: cbbd 3ebd 7af8 f93c b935 5cbb ff47 e63c
000000d0: 820d f63d d729 88bd 5933 cd3c cf88 08bd
000000e0: cc0f e53b 58f7 823d b19a d23d bb6e ee3d
000000f0: 12b0 c03d 459c 383d 5beb b83c f5bb 08bd
00000100: cb96 133e 6454 1b3d 9a23 923b 3023 06be
00000110: f303 4fbc 3731 06bd 9637 013e 52b4 9fbd
00000120: e694 d33d f8ff edbd 435b a1bd 1226 50bd
00000130: afb3 a03c 82d9 1e3d fec3 88bd a101 46bd
00000140: c8d7 2f3d 03c5 643c 6956 333d 7e9a bb3c
00000150: 881e fd3d 49ff 8fbd c9a1 ebbd cfcc e53c
00000160: bba0 86bd 0ea7 923b d306 0fbd 5b58 b7bd
00000170: fbaf 9c3d 1dd5 c8bd eb1a 99bc 62b9 fa3d
00000180: 7b02 ff3b c300 2cbe b4fe 1c3d f644 e6bc

batch_norm_1.weight f4 [100]
1.0 1.0 1.0 1.0 1.0 1.0 1.0 1.0
1.0 1.0 1.0 1.0 1.0 1.0 1.0 1.0
1.0 1.0 1.0 1.0 1.0 1.0 1.0 1.0
1.0 1.0 1.0 1.0 1.0 1.0 1.0 1.0
1.0 1.0 1.0 1.0 1.0 1.0 1.0 1.0
1.0 1.0 1.0 1.0 1.0 1.0 1.0 1.0
1.0 1.0 1.0 1.0 1.0 1.0 1.0 1.0
1.0 1.0 1.0 1.0 1.0 1.0 1.0 1.0
1.0 1.0 1.0 1.0 1.0 1.0 1.0 1.0
1.0 1.0 1.0 1.0 1.0 1.0 1.0 1.0
1.0 1.0 1.0 1.0 1.0 1.0 1.0 1.0
1.0 1.0 1.0 1.0 1.0 1.0 1.0 1.0
1.0 1.0 1.0 1.0
00000000: 0000 803f 0000 803f 0000 803f 0000 803f
00000010: 0000 803f 0000 803f 0000 803f 0000 803f
00000020: 0000 803f 0000 803f 0000 803f 0000 803f
00000030: 0000 803f 0000 803f 0000 803f 0000 803f
00000040: 0000 803f 0000 803f 0000 803f 0000 803f
00000050: 0000 803f 0000 803f 0000 803f 0000 803f
00000060: 0000 803f 0000 803f 0000 803f 0000 803f
00000070: 0000 803f 0000 803f 0000 803f 0000 803f
00000080: 0000 803f 0000 803f 0000 803f 0000 803f
00000090: 0000 803f 0000 803f 0000 803f 0000 803f
000000a0: 0000 803f 0000 803f 0000 803f 0000 803f
000000b0: 0000 803f 0000 803f 0000 803f 0000 803f
000000c0: 0000 803f 0000 803f 0000 803f 0000 803f
000000d0: 0000 803f 0000 803f 0000 803f 0000 803f
000000e0: 0000 803f 0000 803f 0000 803f 0000 803f
000000f0: 0000 803f 0000 803f 0000 803f 0000 803f
00000100: 0000 803f 0000 803f 0000 803f 0000 803f
00000110: 0000 803f 0000 803f 0000 803f 0000 803f
00000120: 0000 803f 0000 803f 0000 803f 0000 803f
00000130: 0000 803f 0000 803f 0000 803f 0000 803f
00000140: 0000 803f 0000 803f 0000 803f 0000 803f
00000150: 0000 803f 0000 803f 0000 803f 0000 803f
00000160: 0000 803f 0000 803f 0000 803f 0000 803f
00000170: 0000 803f 0000 803f 0000 803f 0000 803f
00000180: 0000 803f 0000 803f 0000 803f 0000 803f

batch_norm_1.bias f4 [100]
0.0 0.0 0.0 0.0 0.0 0.0 0.0 0.0
0.0 0.0 0.0 0.0 0.0 0.0 0.0 0.0
0.0 0.0 0.0 0.0 0.0 0.0 0.0 0.0
0.0 0.0 0.0 0.0 0.0 0.0 0.0 0.0
0.0 0.0 0.0 0.0 0.0 0.0 0.0 0.0
0.0 0.0 0.0 0.0 0.0 0.0 0.0 0.0
0.0 0.0 0.0 0.0 0.0 0.0 0.0 0.0
0.0 0.0 0.0 0.0 0.0 0.0 0.0 0.0
0.0 0.0 0.0 0.0 0.0 0.0 0.0 0.0
0.0 0.0 0.0 0.0 0.0 0.0 0.0 0.0
0.0 0.0 0.0 0.0 0.0 0.0 0.0 0.0
0.0 0.0 0.0 0.0 0.0 0.0 0.0 0.0
0.0 0.0 0.0 0.0
00000000: 0000 0000 0000 0000 0000 0000 0000 0000
00000010: 0000 0000 0000 0000 0000 0000 0000 0000
00000020: 0000 0000 0000 0000 0000 0000 0000 0000
00000030: 0000 0000 0000 0000 0000 0000 0000 0000
00000040: 0000 0000 0000 0000 0000 0000 0000 0000
00000050: 0000 0000 0000 0000 0000 0000 0000 0000
00000060: 0000 0000 0000 0000 0000 0000 0000 0000
00000070: 0000 0000 0000 0000 0000 0000 0000 0000
00000080: 0000 0000 0000 0000 0000 0000 0000 0000
00000090: 0000 0000 0000 0000 0000 0000 0000 0000
000000a0: 0000 0000 0000 0000 0000 0000 0000 0000
000000b0: 0000 0000 0000 0000 0000 0000 0000 0000
000000c0: 0000 0000 0000 0000 0000 0000 0000 0000
000000d0: 0000 0000 0000 0000 0000 0000 0000 0000
000000e0: 0000 0000 0000 0000 0000 0000 0000 0000
000000f0: 0000 0000 0000 0000 0000 0000 0000 0000
00000100: 0000 0000 0000 0000 0000 0000 0000 0000
00000110: 0000 0000 0000 0000 0000 0000 0000 0000
00000120: 0000 0000 0000 0000 0000 0000 0000 0000
00000130: 0000 0000 0000 0000 0000 0000 0000 0000
00000140: 0000 0000 0000 0000 0000 0000 0000 0000
00000150: 0000 0000 0000 0000 0000 0000 0000 0000
00000160: 0000 0000 0000 0000 0000 0000 0000 0000
00000170: 0000 0000 0000 0000 0000 0000 0000 0000
00000180: 0000 0000 0000 0000 0000 0000 0000 0000

batch_norm_2.weight f4 [100]
1.0 1.0 1.0 1.0 1.0 1.0 1.0 1.0
1.0 1.0 1.0 1.0 1.0 1.0 1.0 1.0
1.0 1.0 1.0 1.0 1.0 1.0 1.0 1.0
1.0 1.0 1.0 1.0 1.0 1.0 1.0 1.0
1.0 1.0 1.0 1.0 1.0 1.0 1.0 1.0
1.0 1.0 1.0 1.0 1.0 1.0 1.0 1.0
1.0 1.0 1.0 1.0 1.0 1.0 1.0 1.0
1.0 1.0 1.0 1.0 1.0 1.0 1.0 1.0
1.0 1.0 1.0 1.0 1.0 1.0 1.0 1.0
1.0 1.0 1.0 1.0 1.0 1.0 1.0 1.0
1.0 1.0 1.0 1.0 1.0 1.0 1.0 1.0
1.0 1.0 1.0 1.0 1.0 1.0 1.0 1.0
1.0 1.0 1.0 1.0
00000000: 0000 803f 0000 803f 0000 803f 0000 803f
00000010: 0000 803f 0000 803f 0000 803f 0000 803f
00000020: 0000 803f 0000 803f 0000 803f 0000 803f
00000030: 0000 803f 0000 803f 0000 803f 0000 803f
00000040: 0000 803f 0000 803f 0000 803f 0000 803f
00000050: 0000 803f 0000 803f 0000 803f 0000 803f
00000060: 0000 803f 0000 803f 0000 803f 0000 803f
00000070: 0000 803f 0000 803f 0000 803f 0000 803f
00000080: 0000 803f 0000 803f 0000 803f 0000 803f
00000090: 0000 803f 0000 803f 0000 803f 0000 803f
000000a0: 0000 803f 0000 803f 0000 803f 0000 803f
000000b0: 0000 803f 0000 803f 0000 803f 0000 803f
000000c0: 0000 803f 0000 803f 0000 803f 0000 803f
000000d0: 0000 803f 0000 803f 0000 803f 0000 803f
000000e0: 0000 803f 0000 803f 0000 803f 0000 803f
000000f0: 0000 803f 0000 803f 0000 803f 0000 803f
00000100: 0000 803f 0000 803f 0000 803f 0000 803f
00000110: 0000 803f 0000 803f 0000 803f 0000 803f
00000120: 0000 803f 0000 803f 0000 803f 0000 803f
00000130: 0000 803f 0000 803f 0000 803f 0000 803f
00000140: 0000 803f 0000 803f 0000 803f 0000 803f
00000150: 0000 803f 0000 803f 0000 803f 0000 803f
00000160: 0000 803f 0000 803f 0000 803f 0000 803f
00000170: 0000 803f 0000 803f 0000 803f 0000 803f
00000180: 0000 803f 0000 803f 0000 803f 0000 803f

batch_norm_2.bias f4 [100]
0.0 0.0 0.0 0.0 0.0 0.0 0.0 0.0
0.0 0.0 0.0 0.0 0.0 0.0 0.0 0.0
0.0 0.0 0.0 0.0 0.0 0.0 0.0 0.0
0.0 0.0 0.0 0.0 0.0 0.0 0.0 0.0
0.0 0.0 0.0 0.0 0.0 0.0 0.0 0.0
0.0 0.0 0.0 0.0 0.0 0.0 0.0 0.0
0.0 0.0 0.0 0.0 0.0 0.0 0.0 0.0
0.0 0.0 0.0 0.0 0.0 0.0 0.0 0.0
0.0 0.0 0.0 0.0 0.0 0.0 0.0 0.0
0.0 0.0 0.0 0.0 0.0 0.0 0.0 0.0
0.0 0.0 0.0 0.0 0.0 0.0 0.0 0.0
0.0 0.0 0.0 0.0 0.0 0.0 0.0 0.0
0.0 0.0 0.0 0.0
00000000: 0000 0000 0000 0000 0000 0000 0000 0000
00000010: 0000 0000 0000 0000 0000 0000 0000 0000
00000020: 0000 0000 0000 0000 0000 0000 0000 0000
00000030: 0000 0000 0000 0000 0000 0000 0000 0000
00000040: 0000 0000 0000 0000 0000 0000 0000 0000
00000050: 0000 0000 0000 0000 0000 0000 0000 0000
00000060: 0000 0000 0000 0000 0000 0000 0000 0000
00000070: 0000 0000 0000 0000 0000 0000 0000 0000
00000080: 0000 0000 0000 0000 0000 0000 0000 0000
00000090: 0000 0000 0000 0000 0000 0000 0000 0000
000000a0: 0000 0000 0000 0000 0000 0000 0000 0000
000000b0: 0000 0000 0000 0000 0000 0000 0000 0000
000000c0: 0000 0000 0000 0000 0000 0000 0000 0000
000000d0: 0000 0000 0000 0000 0000 0000 0000 0000
000000e0: 0000 0000 0000 0000 0000 0000 0000 0000
000000f0: 0000 0000 0000 0000 0000 0000 0000 0000
00000100: 0000 0000 0000 0000 0000 0000 0000 0000
00000110: 0000 0000 0000 0000 0000 0000 0000 0000
00000120: 0000 0000 0000 0000 0000 0000 0000 0000
00000130: 0000 0000 0000 0000 0000 0000 0000 0000
00000140: 0000 0000 0000 0000 0000 0000 0000 0000
00000150: 0000 0000 0000 0000 0000 0000 0000 0000
00000160: 0000 0000 0000 0000 0000 0000 0000 0000
00000170: 0000 0000 0000 0000 0000 0000 0000 0000
00000180: 0000 0000 0000 0000 0000 0000 0000 0000

exp_avg f4 [1, 1, 100]
-0.0015494348 -0.0049143 0.00569419 -0.0040204255 -0.014706616 0.01638731 0.019713482 0.0042118556
0.009978913 -0.0066002933 0.0022162104 -0.018434746 -0.020178186 -0.010442136 -0.013091774 0.010345311
-0.014128198 0.011571307 -0.008274123 -0.02263033 -0.010878094 -0.010357557 0.008124426 -0.010038318
0.0060109994 -0.009362023 0.015188499 0.010470356 -0.003800302 0.014653318 -0.0047932663 -0.0063726716
-0.0049929265 -0.010475015 0.0020807923 0.0060106106 -0.0116353715 0.011884669 0.012430124 -0.012959197
-0.013945526 0.008219826 -0.007789151 -0.002631016 0.005600398 0.016700035 -0.0059720124 0.016180102
-0.012315764 0.0013139468 0.0020819616 -0.0023200733 0.019188168 -0.019076113 -0.010390016 0.009473166
0.0036010372 0.0042473706 0.020776179 0.013983478 0.008923673 -0.010493122 -0.011610825 0.009707313
0.009417751 0.009115578 0.0073611243 -0.021849569 0.009613806 -0.011409319 0.0071801264 0.0031234426
0.01718345 -0.022077285 -0.01547552 -0.0034663272 -0.017013093 0.011867026 0.0015584307 0.011313229
0.005850729 -0.009948709 -0.0077408813 0.0038624387 0.0060842144 -0.007835849 -0.019371286 0.0039446037
-0.00440303 0.005816434 0.0037757822 -0.0033270675 -0.012359007 -0.008386349 0.005041895 0.024193699
-0.014769246 -0.013760109 -0.004681123 -0.015582274
00000000: 6816 cbba 2308 a1bb 5496 ba3b c6bd 83bb
00000010: 05f4 70bc ae3e 863c 2b7e a13c 9b03 8a3b
00000020: 987e 233c 4647 d8bb d73d 113b 7704 97bc
00000030: b94c a5bc 7e15 2bbc e17e 56bc 617f 293c
00000040: f579 67bc 9495 3d3c 3090 07bc 3e63 b9bc
00000050: 083a 32bc beb2 29bc 501c 053c c277 24bc
00000060: ebf7 c43b 2c63 19bc 2fd9 783c db8b 2b3c
00000070: 7d0e 79bb 7814 703c d510 9dbb d8d1 d0bb
00000080: b49b a3bb 669f 2bbc e75d 083b a8f4 c43b
00000090: 49a2 3ebc eab7 423c b8a7 4b3c d052 54bc
000000a0: c77b 64bc 73ac 063c 223c ffbb 206d 2cbb
000000b0: 8b83 b73b 83ce 883c dfb0 c3bb 228c 843c
000000c0: 0fc8 49bc bd38 ac3a 8571 083b 5f0c 18bb
000000d0: 8130 9d3c 8245 9cbc e33a 2abc 5735 1b3c
000000e0: 61ff 6b3b 872d 8b3b ce32 aa3c f51a 653c
000000f0: 9934 123c 58eb 2bbc 543b 3ebc 6c0b 1f3c
00000100: e94c 1a3c 8159 153c 9635 f13b defd b2bc
00000110: 3a83 1d3c 27ee 3abc 4447 eb3b acb2 4c3b
00000120: 4ec4 8c3c 6cdb b4bc 098d 7dbc 522b 63bb
00000130: 0b5f 8bbc ea6d 423c 4244 cc3a 1f5b 393c
00000140: 79b7 bf3b e9ff 22bc 38a7 fdbb f820 7d3b
00000150: 175e c73b ef61 00bc 88b0 9ebc bc41 813b
00000160: 4b47 90bb c997 be3b 1d73 773b ee0a 5abb
00000170: 6f7d 4abc e666 09bc 7b36 a53b dd31 c63c
00000180: b5fa 71bc 1572 61bc 1b64 99bb cb4c 7fbc

exp_avg_sq f4 [1, 1, 100]
2.594487e-06 9.42435e-06 1.1920029e-05 4.3417604e-06 5.4690656e-05 6.739968e-05 8.414184e-05 9.271664e-06
2.2178134e-05 1.6446795e-05 1.5776915e-06 7.828226e-05 0.000101137695 2.4613795e-05 4.189788e-05 3.0350488e-05
4.3998352e-05 3.0931413e-05 1.4535413e-05 0.000107468135 3.6605095e-05 2.6776765e-05 2.2277278e-05 4.0004074e-05
1.3319653e-05 2.5500909e-05 5.202732e-05 3.1848514e-05 9.852071e-06 4.7382608e-05 7.40278e-06 9.506894e-06
9.692913e-06 2.5385252e-05 2.653153e-06 9.773272e-06 2.909398e-05 3.1310385e-05 5.1029503e-05 4.0065956e-05
6.3774394e-05 1.7447974e-05 1.5531245e-05 3.1784853e-06 1.1637764e-05 6.300397e-05 1.2745507e-05 7.1986986e-05
3.701522e-05 7.5786343e-06 4.457423e-06 3.7442455e-06 8.9103065e-05 7.590409e-05 2.8646074e-05 2.059167e-05
4.439758e-06 9.762161e-06 0.000114207156 4.7616573e-05 2.422105e-05 3.182e-05 3.20012e-05 3.3544467e-05
1.9409255e-05 2.0054247e-05 1.8324126e-05 0.00011705648 2.7281738e-05 4.406156e-05 2.1918244e-05 5.586883e-06
6.365423e-05 0.00010552903 5.2072748e-05 5.2980454e-06 6.382879e-05 3.3770106e-05 5.4101533e-06 3.069683e-05
1.8136903e-05 2.5204887e-05 1.8926157e-05 8.705212e-06 1.909707e-05 1.2840873e-05 8.8406945e-05 6.106949e-06
9.251685e-06 1.5966692e-05 8.580237e-06 8.617819e-06 3.6090754e-05 1.9200368e-05 1.0098394e-05 0.00012672768
4.7323872e-05 4.4345612e-05 9.595364e-06 5.9183305e-05
00000000: f21c 2e36 461d 1e37 22fc 4737 70af 9136
00000010: a563 6538 ed58 8d38 4e75 b038 7e8d 1b37
00000020: 2e0b ba37 39f7 8937 11c1 d335 782b a438
00000030: e319 d438 b979 ce37 82bb 2f38 2d99 fe37
00000040: df8a 3838 5abc 0138 20dd 7337 8460 e138
00000050: 6c88 1938 aa9e e037 17e0 ba37 0cca 2738
00000060: 7977 5f37 c9ea d537 e937 5a38 1595 0538
00000070: 534a 2537 b0bc 4638 6565 f836 cc7f 1f37
00000080: bf9e 2237 6af2 d437 d20c 3236 e2f7 2337
00000090: d90e f437 4553 0338 8308 5638 7e0c 2838
000000a0: 9ebe 8538 3d5d 9237 1849 8237 f64d 5536
000000b0: d13f 4337 0021 8438 89d5 5537 b8f7 9638
000000c0: ca40 1b38 f94b fe36 f990 9536 a645 7b36
000000d0: d8dc ba38 b32e 9f38 fa4c f037 46bc ac37
000000e0: 3bf9 9436 2ac8 2337 8082 ef38 e8b7 4738
000000f0: 4f2e cb37 7776 0538 0739 0638 19b2 0c38
00000100: 0fd1 a237 2b3a a837 c3b6 9937 387c f538
00000110: 16db e437 bdce 3838 12dd b737 f676 bb36
00000120: 1b7e 8538 774f dd38 b068 5a38 ddc5 b136
00000130: d2db 8538 60a4 0d38 dd88 b536 78c0 0038
00000140: b424 9837 156f d337 9dc3 9e37 9a0c 1237
00000150: a532 a037 216f 5737 1e67 b938 4bea cc36
00000160: af37 1b37 36f0 8537 d6f3 0f37 4095 1037
00000170: 2760 1738 7a10 a137 466c 2937 34e2 0439
00000180: 9f7d 4638 bdff 3938 c6fb 2037 973b 7838

exp_avg f4 [1, 1, 100]
-0.00060453423 -0.0002241978 -0.0005222573 -0.00024932128 0.00029440166 -0.0009820681 -2.5712825e-05 -0.00015197665
-0.0003073783 0.00022641147 0.00017396375 0.0001573043 0.00016677011 0.00060938793 0.0010891189 -0.00023908299
0.00043314564 0.00036608672 3.7002763e-05 0.00038430042 0.0005630252 2.7074773e-05 -0.00092974445 0.00047431508
0.00012564858 0.0007622321 -0.0003801647 -2.331914e-05 0.0002759044 0.00021016289 0.00030219887 0.00032259527
0.000897886 0.00044951608 0.0001860853 0.0005117798 0.00059537595 0.00015857433 -0.0001171345 0.0002062001
0.00050258683 -0.0008604668 -0.000115648785 -0.00034848799 -0.00011606869 -0.0010722808 0.0003376866 -0.000785425
-0.0002553492 -0.00056247227 0.00051129155 0.00071647664 -0.00058021 0.00036447635 -0.00014591603 -1.2659517e-05
-0.0005072545 0.00049414847 -5.3817093e-05 -0.0012624298 0.00029350052 -0.00013072965 0.00051910745 -1.505758e-06
-0.00032769606 -3.6860514e-05 -0.0009949664 0.00018937823 -4.3292308e-05 0.0005767937 -0.00052041013 0.0005762222
-0.00062406197 0.0010821832 0.0009451594 -0.00015125179 0.0001082193 -7.6727745e-05 0.0007623673 -0.00014606095
-8.198229e-05 -0.00022739545 -3.2606285e-06 -0.0008317575 1.3363242e-05 0.00012295469 -8.595647e-05 -0.00032018634
-0.00015807032 -0.0002877195 0.00043143853 0.0003883479 7.277938e-05 0.00087325985 0.0006749165 -0.00034258937
0.00022570336 0.00020250388 -0.00081113836 -0.00035885794
00000000: 9b79 1eba a416 6bb9 18e8 08ba 56b7 82b9
00000010: ec59 9a39 bdb8 80ba dfb1 d7b7 ec5b 1fb9
00000020: 9e27 a1b9 de68 6d39 0a6a 3639 0df2 2439
00000030: 03df 2e39 55bf 1f3a c4c0 8e3a 5ab2 7ab9
00000040: d317 e339 54ef bf39 6a33 1b38 ee7b c939
00000050: fb97 133a a21e e337 18ba 73ba 7ead f839
00000060: 89c0 0339 88d0 473a d850 c7b9 799d c3b7
00000070: 43a7 9039 2c5f 5c39 7270 9e39 0122 a939
00000080: 1c60 6b3a 07ad eb39 e41f 4339 f628 063a
00000090: 0113 1c3a f946 2639 1ba6 f5b8 6b37 5839
000000a0: 08c0 033a f390 61ba 7888 f2b8 44b5 b6b9
000000b0: e769 f3b8 c68b 8cba 870b b139 fbe4 4dba
000000c0: 64e0 85b9 e072 13ba 3208 063a efd1 3b3a
000000d0: 3c19 18ba 3017 bf39 0901 19b9 3664 54b7
000000e0: 46f9 04ba be89 013a aab9 61b8 1d78 a5ba
000000f0: f9e0 9939 7914 09b9 b614 083a 7319 cab5
00000100: 9fce abb9 ad9a 1ab8 8869 82ba d593 4639
00000110: c394 35b8 f833 173a 226c 08ba 9e0d 173a
00000120: 1798 23ba 0bd8 8d3a 93c4 773a 5899 1eb9
00000130: cbf3 e238 e5e8 a0b8 9ad9 473a f027 19b9
00000140: e8ed abb8 0071 6eb9 2cd1 5ab6 4d0a 5aba
00000150: b032 6037 66ed 0039 8743 b4b8 afde a7b9
00000160: aebf 25b9 0fd9 96b9 b332 e239 2c9b cb39
00000170: 22a1 9838 7aeb 643a e1ec 303a 919d b3b9
00000180: c9aa 6c39 3957 5439 93a2 54ba 1925 bcb9

exp_avg_sq f4 [1, 1, 100]
1.7280094e-07 7.719227e-08 2.0234795e-07 9.487969e-08 2.2550435e-07 9.609145e-07 9.528695e-07 1.3969571e-07
1.4495262e-07 7.400647e-07 4.388446e-08 1.03484695e-07 1.7653548e-07 5.456037e-07 1.1009814e-06 1.7332887e-07
9.1153487e-07 5.413912e-07 2.3689456e-07 1.0443756e-06 3.2588932e-07 2.2796884e-08 6.210338e-07 3.900251e-07
6.3484924e-07 5.7367055e-07 2.6445557e-07 1.2224165e-06 1.9208174e-07 5.870085e-07 7.6598596e-08 7.5860925e-08
6.120583e-07 2.0830853e-07 3.57669e-08 1.2970753e-07 5.0679495e-07 2.7518902e-07 2.4632675e-07 1.10792584e-07
4.741018e-07 7.092686e-07 3.07417e-07 8.971248e-08 7.496195e-08 1.3260126e-06 1.2819729e-07 5.690783e-07
5.977853e-08 3.5950677e-07 2.5087203e-07 2.9880312e-07 4.779367e-07 1.2590345e-06 3.6346613e-08 5.3249846e-07
2.5893982e-07 2.1718428e-07 1.6584468e-07 1.3409617e-06 6.273482e-08 4.199445e-08 2.8662873e-07 1.5402716e-07
2.0048537e-07 6.1178866e-07 6.675963e-07 1.7960855e-07 9.029319e-07 4.2551952e-07 3.2521754e-07 2.3524636e-07
8.127493e-07 1.6124962e-06 1.2796917e-06 2.157076e-07 6.7236425e-07 7.1282733e-07 3.6034345e-07 1.0303728e-06
2.3037404e-07 8.273737e-08 4.1948493e-08 4.2420635e-07 2.3453444e-07 2.3275213e-07 8.648308e-08 1.0935628e-07
3.7575936e-07 2.1063346e-07 3.8908962e-07 2.0010249e-07 8.1496717e-07 4.9045383e-07 2.8331698e-07 9.916423e-07
4.399882e-07 1.423014e-07 2.7381725e-07 1.5389551e-07
00000000: 298b 3934 e6c4 a533 fb44 5934 a9c0 cb33
00000010: 2a22 7234 c5f8 8035 b2c8 7f35 44ff 1534
00000020: 46a4 1b34 dca8 4635 797b 3c33 503b de33
00000030: b48d 3d34 9a75 1235 6fc5 9335 471c 3a34
00000040: 33b0 7435 1f54 1135 155d 7e34 792c 8c35
00000050: e3f5 ae34 e1d2 c332 1eb5 2635 a464 d134
00000060: 826a 2a35 57fe 1935 7ffa 8d34 e911 a435
00000070: 073f 4e34 eb92 1d35 867e a433 fce8 a233
00000080: 534c 2435 6aab 5f34 1f9e 1933 bc45 0b34
00000090: af0a 0835 b1bd 9334 e43e 8434 deec ed33
000000a0: 0e88 fe34 9164 3e35 120b a534 f5a7 c033
000000b0: c5fa a033 72f9 b135 9aa6 0934 c3c2 1835
000000c0: 985f 8033 3c02 c134 97af 8634 306b a034
000000d0: 8f4b 0035 19fc a835 861b 1c33 04f1 0e35
000000e0: 6b04 8b34 2933 6934 0a13 3234 18fb b335
000000f0: d5b8 8633 635d 3433 f4e1 9934 aa62 2534
00000100: 0045 5734 cc39 2435 de34 3335 6cda 4034
00000110: 0261 7235 f572 e434 8f99 ae34 0798 7c34
00000120: b52b 5a35 f36c d835 dfc1 ab35 419d 6734
00000130: 857c 3435 1f59 3f35 3a75 c134 574b 8a35
00000140: bc5c 7734 5aad b133 db2a 3433 7abe e334
00000150: 56d4 7b34 6bea 7934 93b8 b933 40d7 ea33
00000160: f9bb c934 7c2a 6234 12e4 d034 c1db 5634
00000170: 1ec4 5a35 bba7 0335 ca1a 9834 9218 8535
00000180: 8537 ec34 83cb 1834 2801 9334 7a3e 2534

exp_avg f4 [1, 1, 100]
-6.668641e-06 -4.246685e-06 -1.5063358e-06 7.0075353e-06 3.450987e-06 -3.9898237e-06 -4.071739e-06 1.8467308e-06
-1.3381762e-06 -3.271391e-06 1.2781423e-07 3.1220025e-06 -2.0540676e-06 3.076239e-07 -6.448249e-06 3.3626366e-06
-3.4364514e-06 4.5628794e-06 -2.099657e-06 3.2553671e-06 8.023114e-07 -1.9796937e-07 -3.9859874e-06 -2.921282e-06
4.2218694e-06 4.084494e-06 -4.7920767e-06 1.910278e-06 3.3126908e-06 4.788911e-06 1.0827799e-06 -5.7843454e-06
-4.3925274e-06 -1.4070441e-08 3.7217949e-06 -1.8716116e-06 -2.1284663e-06 3.2263972e-07 -5.1872814e-07 1.1165863e-06
-7.873198e-06 -7.1074974e-06 7.3744136e-06 2.406068e-06 -6.4060237e-06 -5.631995e-06 5.684528e-06 8.63524e-07
-1.1361335e-07 1.1136958e-06 3.3917852e-06 -2.4391238e-07 -5.5019345e-06 -4.039145e-06 5.1105453e-06 8.759881e-06
-3.0459628e-06 1.6662948e-06 -4.6714167e-06 5.9535464e-06 3.8665216e-06 -7.3808214e-06 4.019675e-06 -4.256027e-06
-4.1158473e-06 5.459173e-06 2.4629628e-07 9.332625e-08 2.0268212e-06 -7.4265963e-06 6.9007388e-06 8.178869e-06
-3.1331008e-06 7.405477e-06 7.738371e-06 8.568422e-07 -9.876738e-07 4.383537e-06 3.3203694e-06 -7.612147e-06
-5.0788714e-07 -4.5299253e-06 -1.4533239e-06 -3.857216e-07 -7.2677913e-06 8.012395e-06 5.738906e-06 4.9656514e-06
8.7767646e-08 3.2736339e-06 -1.304868e-06 4.576155e-06 -3.4734308e-06 -5.4502016e-06 1.1703116e-06 2.6139408e-06
-6.3627863e-06 -6.4830505e-07 -7.74936e-06 -1.0775516e-06
00000000: 31c3 dfb6 bf7e 8eb6 4e2d cab5 4522 eb36
00000010: 8197 6736 53e0 85b6 f99f 88b6 30dd f735
00000020: 629b b3b5 128a 5bb6 4f3d 0934 9883 5136
00000030: 9dd8 09b6 8227 a534 0a5e d8b6 a8a9 6136
00000040: c99d 66b6 d61a 9936 d5e7 0cb6 c876 5a36
00000050: 6b5e 5735 6891 54b4 5fbf 85b6 3e0b 44b6
00000060: 95a9 8d36 890d 8936 a0cb a0b6 5332 0036
00000070: 984f 5e36 6fb0 a036 0954 9135 2617 c2b6
00000080: 8663 93b6 74ba 71b2 f3c3 7936 1634 fbb5
00000090: c6d6 0eb6 4437 ad34 ba3e 0bb5 9ddd 9535
000000a0: 2117 04b7 f07c eeb6 bb71 f736 ef77 2136
000000b0: 53f3 d6b6 78fa bcb6 b9bd be36 ebcc 6735
000000c0: 9afb f3b3 4c7a 9535 6d9e 6336 10f3 82b4
000000d0: 429d b8b6 fe87 87b6 407b ab36 67f7 1237
000000e0: 3e69 4cb6 74a5 df35 2abf 9cb6 93c4 c736
000000f0: 2bbd 8136 c6a8 f7b6 bfe0 8636 fece 8eb6
00000100: dc1a 8ab6 f02d b736 b43a 8434 a66a c833
00000110: 8604 0836 fa31 f9b6 e58c e736 fa37 0937
00000120: 4342 52b6 907c f836 0dd4 0137 bf01 6635
00000130: 3790 84b5 4c16 9336 83d3 5e36 d86b ffb6
00000140: bd55 08b5 c3ff 97b6 d40f c3b5 2c15 cfb4
00000150: dadd f3b6 f96c 0637 d490 c036 9f9e a636
00000160: c67a bc33 9ab0 5b36 ec22 afb5 df8c 9936
00000170: 1619 69b6 e0e0 b6b6 9a13 9d35 296b 2f36
00000180: eb7f d5b6 2f07 2eb5 3f03 02b7 64a0 90b5
